{
  "nodes": [
    {
      "op": "null", 
      "name": "data", 
      "inputs": []
    }, 
    {
      "op": "null", 
      "name": "hybridsequential0_conv0_weight", 
      "attr": {
        "__dtype__": "0", 
        "__lr_mult__": "1.0", 
        "__shape__": "(48L, 0L, 3L, 3L)", 
        "__wd_mult__": "1.0"
      }, 
      "inputs": []
    }, 
    {
      "op": "null", 
      "name": "hybridsequential0_conv0_bias", 
      "attr": {
        "__dtype__": "0", 
        "__init__": "zeros", 
        "__lr_mult__": "1.0", 
        "__shape__": "(48L,)", 
        "__wd_mult__": "1.0"
      }, 
      "inputs": []
    }, 
    {
      "op": "Convolution", 
      "name": "hybridsequential0_conv0_fwd", 
      "attr": {
        "dilate": "(1, 1)", 
        "kernel": "(3, 3)", 
        "layout": "NCHW", 
        "no_bias": "False", 
        "num_filter": "48", 
        "num_group": "1", 
        "pad": "(1, 1)", 
        "stride": "(2, 2)"
      }, 
      "inputs": [[0, 0, 0], [1, 0, 0], [2, 0, 0]]
    }, 
    {
      "op": "null", 
      "name": "hybridsequential0_batchnorm0_gamma", 
      "attr": {
        "__dtype__": "0", 
        "__init__": "ones", 
        "__lr_mult__": "1.0", 
        "__shape__": "(0,)", 
        "__wd_mult__": "1.0"
      }, 
      "inputs": []
    }, 
    {
      "op": "null", 
      "name": "hybridsequential0_batchnorm0_beta", 
      "attr": {
        "__dtype__": "0", 
        "__init__": "zeros", 
        "__lr_mult__": "1.0", 
        "__shape__": "(0,)", 
        "__wd_mult__": "1.0"
      }, 
      "inputs": []
    }, 
    {
      "op": "null", 
      "name": "hybridsequential0_batchnorm0_running_mean", 
      "attr": {
        "__dtype__": "0", 
        "__init__": "zeros", 
        "__lr_mult__": "1.0", 
        "__shape__": "(0,)", 
        "__wd_mult__": "1.0"
      }, 
      "inputs": []
    }, 
    {
      "op": "null", 
      "name": "hybridsequential0_batchnorm0_running_var", 
      "attr": {
        "__dtype__": "0", 
        "__init__": "ones", 
        "__lr_mult__": "1.0", 
        "__shape__": "(0,)", 
        "__wd_mult__": "1.0"
      }, 
      "inputs": []
    }, 
    {
      "op": "BatchNorm", 
      "name": "hybridsequential0_batchnorm0_fwd", 
      "attr": {
        "axis": "1", 
        "eps": "1e-05", 
        "fix_gamma": "False", 
        "momentum": "0.9", 
        "use_global_stats": "False"
      }, 
      "inputs": [[3, 0, 0], [4, 0, 0], [5, 0, 0], [6, 0, 1], [7, 0, 1]]
    }, 
    {
      "op": "Activation", 
      "name": "hybridsequential0_relu0_fwd", 
      "attr": {"act_type": "relu"}, 
      "inputs": [[8, 0, 0]]
    }, 
    {
      "op": "null", 
      "name": "hybridsequential0_conv1_weight", 
      "attr": {
        "__dtype__": "0", 
        "__lr_mult__": "1.0", 
        "__shape__": "(24L, 0L, 1L, 1L)", 
        "__wd_mult__": "1.0"
      }, 
      "inputs": []
    }, 
    {
      "op": "null", 
      "name": "hybridsequential0_conv1_bias", 
      "attr": {
        "__dtype__": "0", 
        "__init__": "zeros", 
        "__lr_mult__": "1.0", 
        "__shape__": "(24L,)", 
        "__wd_mult__": "1.0"
      }, 
      "inputs": []
    }, 
    {
      "op": "Convolution", 
      "name": "hybridsequential0_conv1_fwd", 
      "attr": {
        "dilate": "(1, 1)", 
        "kernel": "(1, 1)", 
        "layout": "NCHW", 
        "no_bias": "False", 
        "num_filter": "24", 
        "num_group": "1", 
        "pad": "(0, 0)", 
        "stride": "(1, 1)"
      }, 
      "inputs": [[9, 0, 0], [10, 0, 0], [11, 0, 0]]
    }, 
    {
      "op": "null", 
      "name": "hybridsequential0_batchnorm1_gamma", 
      "attr": {
        "__dtype__": "0", 
        "__init__": "ones", 
        "__lr_mult__": "1.0", 
        "__shape__": "(0,)", 
        "__wd_mult__": "1.0"
      }, 
      "inputs": []
    }, 
    {
      "op": "null", 
      "name": "hybridsequential0_batchnorm1_beta", 
      "attr": {
        "__dtype__": "0", 
        "__init__": "zeros", 
        "__lr_mult__": "1.0", 
        "__shape__": "(0,)", 
        "__wd_mult__": "1.0"
      }, 
      "inputs": []
    }, 
    {
      "op": "null", 
      "name": "hybridsequential0_batchnorm1_running_mean", 
      "attr": {
        "__dtype__": "0", 
        "__init__": "zeros", 
        "__lr_mult__": "1.0", 
        "__shape__": "(0,)", 
        "__wd_mult__": "1.0"
      }, 
      "inputs": []
    }, 
    {
      "op": "null", 
      "name": "hybridsequential0_batchnorm1_running_var", 
      "attr": {
        "__dtype__": "0", 
        "__init__": "ones", 
        "__lr_mult__": "1.0", 
        "__shape__": "(0,)", 
        "__wd_mult__": "1.0"
      }, 
      "inputs": []
    }, 
    {
      "op": "BatchNorm", 
      "name": "hybridsequential0_batchnorm1_fwd", 
      "attr": {
        "axis": "1", 
        "eps": "1e-05", 
        "fix_gamma": "False", 
        "momentum": "0.9", 
        "use_global_stats": "False"
      }, 
      "inputs": [[12, 0, 0], [13, 0, 0], [14, 0, 0], [15, 0, 1], [16, 0, 1]]
    }, 
    {
      "op": "Activation", 
      "name": "hybridsequential0_relu1_fwd", 
      "attr": {"act_type": "relu"}, 
      "inputs": [[17, 0, 0]]
    }, 
    {
      "op": "null", 
      "name": "hybridsequential0_conv2_weight", 
      "attr": {
        "__dtype__": "0", 
        "__lr_mult__": "1.0", 
        "__shape__": "(48L, 0L, 3L, 3L)", 
        "__wd_mult__": "1.0"
      }, 
      "inputs": []
    }, 
    {
      "op": "null", 
      "name": "hybridsequential0_conv2_bias", 
      "attr": {
        "__dtype__": "0", 
        "__init__": "zeros", 
        "__lr_mult__": "1.0", 
        "__shape__": "(48L,)", 
        "__wd_mult__": "1.0"
      }, 
      "inputs": []
    }, 
    {
      "op": "Convolution", 
      "name": "hybridsequential0_conv2_fwd", 
      "attr": {
        "dilate": "(1, 1)", 
        "kernel": "(3, 3)", 
        "layout": "NCHW", 
        "no_bias": "False", 
        "num_filter": "48", 
        "num_group": "1", 
        "pad": "(1, 1)", 
        "stride": "(2, 2)"
      }, 
      "inputs": [[18, 0, 0], [19, 0, 0], [20, 0, 0]]
    }, 
    {
      "op": "null", 
      "name": "hybridsequential0_batchnorm2_gamma", 
      "attr": {
        "__dtype__": "0", 
        "__init__": "ones", 
        "__lr_mult__": "1.0", 
        "__shape__": "(0,)", 
        "__wd_mult__": "1.0"
      }, 
      "inputs": []
    }, 
    {
      "op": "null", 
      "name": "hybridsequential0_batchnorm2_beta", 
      "attr": {
        "__dtype__": "0", 
        "__init__": "zeros", 
        "__lr_mult__": "1.0", 
        "__shape__": "(0,)", 
        "__wd_mult__": "1.0"
      }, 
      "inputs": []
    }, 
    {
      "op": "null", 
      "name": "hybridsequential0_batchnorm2_running_mean", 
      "attr": {
        "__dtype__": "0", 
        "__init__": "zeros", 
        "__lr_mult__": "1.0", 
        "__shape__": "(0,)", 
        "__wd_mult__": "1.0"
      }, 
      "inputs": []
    }, 
    {
      "op": "null", 
      "name": "hybridsequential0_batchnorm2_running_var", 
      "attr": {
        "__dtype__": "0", 
        "__init__": "ones", 
        "__lr_mult__": "1.0", 
        "__shape__": "(0,)", 
        "__wd_mult__": "1.0"
      }, 
      "inputs": []
    }, 
    {
      "op": "BatchNorm", 
      "name": "hybridsequential0_batchnorm2_fwd", 
      "attr": {
        "axis": "1", 
        "eps": "1e-05", 
        "fix_gamma": "False", 
        "momentum": "0.9", 
        "use_global_stats": "False"
      }, 
      "inputs": [[21, 0, 0], [22, 0, 0], [23, 0, 0], [24, 0, 1], [25, 0, 1]]
    }, 
    {
      "op": "Activation", 
      "name": "hybridsequential0_relu2_fwd", 
      "attr": {"act_type": "relu"}, 
      "inputs": [[26, 0, 0]]
    }, 
    {
      "op": "null", 
      "name": "hybridsequential0_conv3_weight", 
      "attr": {
        "__dtype__": "0", 
        "__lr_mult__": "1.0", 
        "__shape__": "(24L, 0L, 1L, 1L)", 
        "__wd_mult__": "1.0"
      }, 
      "inputs": []
    }, 
    {
      "op": "null", 
      "name": "hybridsequential0_conv3_bias", 
      "attr": {
        "__dtype__": "0", 
        "__init__": "zeros", 
        "__lr_mult__": "1.0", 
        "__shape__": "(24L,)", 
        "__wd_mult__": "1.0"
      }, 
      "inputs": []
    }, 
    {
      "op": "Convolution", 
      "name": "hybridsequential0_conv3_fwd", 
      "attr": {
        "dilate": "(1, 1)", 
        "kernel": "(1, 1)", 
        "layout": "NCHW", 
        "no_bias": "False", 
        "num_filter": "24", 
        "num_group": "1", 
        "pad": "(0, 0)", 
        "stride": "(1, 1)"
      }, 
      "inputs": [[27, 0, 0], [28, 0, 0], [29, 0, 0]]
    }, 
    {
      "op": "null", 
      "name": "hybridsequential0_batchnorm3_gamma", 
      "attr": {
        "__dtype__": "0", 
        "__init__": "ones", 
        "__lr_mult__": "1.0", 
        "__shape__": "(0,)", 
        "__wd_mult__": "1.0"
      }, 
      "inputs": []
    }, 
    {
      "op": "null", 
      "name": "hybridsequential0_batchnorm3_beta", 
      "attr": {
        "__dtype__": "0", 
        "__init__": "zeros", 
        "__lr_mult__": "1.0", 
        "__shape__": "(0,)", 
        "__wd_mult__": "1.0"
      }, 
      "inputs": []
    }, 
    {
      "op": "null", 
      "name": "hybridsequential0_batchnorm3_running_mean", 
      "attr": {
        "__dtype__": "0", 
        "__init__": "zeros", 
        "__lr_mult__": "1.0", 
        "__shape__": "(0,)", 
        "__wd_mult__": "1.0"
      }, 
      "inputs": []
    }, 
    {
      "op": "null", 
      "name": "hybridsequential0_batchnorm3_running_var", 
      "attr": {
        "__dtype__": "0", 
        "__init__": "ones", 
        "__lr_mult__": "1.0", 
        "__shape__": "(0,)", 
        "__wd_mult__": "1.0"
      }, 
      "inputs": []
    }, 
    {
      "op": "BatchNorm", 
      "name": "hybridsequential0_batchnorm3_fwd", 
      "attr": {
        "axis": "1", 
        "eps": "1e-05", 
        "fix_gamma": "False", 
        "momentum": "0.9", 
        "use_global_stats": "False"
      }, 
      "inputs": [[30, 0, 0], [31, 0, 0], [32, 0, 0], [33, 0, 1], [34, 0, 1]]
    }, 
    {
      "op": "Activation", 
      "name": "hybridsequential0_relu3_fwd", 
      "attr": {"act_type": "relu"}, 
      "inputs": [[35, 0, 0]]
    }, 
    {
      "op": "null", 
      "name": "hybridsequential0_conv4_weight", 
      "attr": {
        "__dtype__": "0", 
        "__lr_mult__": "1.0", 
        "__shape__": "(48L, 0L, 3L, 3L)", 
        "__wd_mult__": "1.0"
      }, 
      "inputs": []
    }, 
    {
      "op": "null", 
      "name": "hybridsequential0_conv4_bias", 
      "attr": {
        "__dtype__": "0", 
        "__init__": "zeros", 
        "__lr_mult__": "1.0", 
        "__shape__": "(48L,)", 
        "__wd_mult__": "1.0"
      }, 
      "inputs": []
    }, 
    {
      "op": "Convolution", 
      "name": "hybridsequential0_conv4_fwd", 
      "attr": {
        "dilate": "(1, 1)", 
        "kernel": "(3, 3)", 
        "layout": "NCHW", 
        "no_bias": "False", 
        "num_filter": "48", 
        "num_group": "1", 
        "pad": "(0, 0)", 
        "stride": "(2, 2)"
      }, 
      "inputs": [[36, 0, 0], [37, 0, 0], [38, 0, 0]]
    }, 
    {
      "op": "null", 
      "name": "hybridsequential0_batchnorm4_gamma", 
      "attr": {
        "__dtype__": "0", 
        "__init__": "ones", 
        "__lr_mult__": "1.0", 
        "__shape__": "(0,)", 
        "__wd_mult__": "1.0"
      }, 
      "inputs": []
    }, 
    {
      "op": "null", 
      "name": "hybridsequential0_batchnorm4_beta", 
      "attr": {
        "__dtype__": "0", 
        "__init__": "zeros", 
        "__lr_mult__": "1.0", 
        "__shape__": "(0,)", 
        "__wd_mult__": "1.0"
      }, 
      "inputs": []
    }, 
    {
      "op": "null", 
      "name": "hybridsequential0_batchnorm4_running_mean", 
      "attr": {
        "__dtype__": "0", 
        "__init__": "zeros", 
        "__lr_mult__": "1.0", 
        "__shape__": "(0,)", 
        "__wd_mult__": "1.0"
      }, 
      "inputs": []
    }, 
    {
      "op": "null", 
      "name": "hybridsequential0_batchnorm4_running_var", 
      "attr": {
        "__dtype__": "0", 
        "__init__": "ones", 
        "__lr_mult__": "1.0", 
        "__shape__": "(0,)", 
        "__wd_mult__": "1.0"
      }, 
      "inputs": []
    }, 
    {
      "op": "BatchNorm", 
      "name": "hybridsequential0_batchnorm4_fwd", 
      "attr": {
        "axis": "1", 
        "eps": "1e-05", 
        "fix_gamma": "False", 
        "momentum": "0.9", 
        "use_global_stats": "False"
      }, 
      "inputs": [[39, 0, 0], [40, 0, 0], [41, 0, 0], [42, 0, 1], [43, 0, 1]]
    }, 
    {
      "op": "Activation", 
      "name": "hybridsequential0_relu4_fwd", 
      "attr": {"act_type": "relu"}, 
      "inputs": [[44, 0, 0]]
    }, 
    {
      "op": "null", 
      "name": "hybridsequential0_conv5_weight", 
      "attr": {
        "__dtype__": "0", 
        "__lr_mult__": "1.0", 
        "__shape__": "(96L, 0L, 3L, 3L)", 
        "__wd_mult__": "1.0"
      }, 
      "inputs": []
    }, 
    {
      "op": "null", 
      "name": "hybridsequential0_conv5_bias", 
      "attr": {
        "__dtype__": "0", 
        "__init__": "zeros", 
        "__lr_mult__": "1.0", 
        "__shape__": "(96L,)", 
        "__wd_mult__": "1.0"
      }, 
      "inputs": []
    }, 
    {
      "op": "Convolution", 
      "name": "hybridsequential0_conv5_fwd", 
      "attr": {
        "dilate": "(1, 1)", 
        "kernel": "(3, 3)", 
        "layout": "NCHW", 
        "no_bias": "False", 
        "num_filter": "96", 
        "num_group": "1", 
        "pad": "(0, 0)", 
        "stride": "(1, 1)"
      }, 
      "inputs": [[45, 0, 0], [46, 0, 0], [47, 0, 0]]
    }, 
    {
      "op": "null", 
      "name": "hybridsequential0_batchnorm5_gamma", 
      "attr": {
        "__dtype__": "0", 
        "__init__": "ones", 
        "__lr_mult__": "1.0", 
        "__shape__": "(0,)", 
        "__wd_mult__": "1.0"
      }, 
      "inputs": []
    }, 
    {
      "op": "null", 
      "name": "hybridsequential0_batchnorm5_beta", 
      "attr": {
        "__dtype__": "0", 
        "__init__": "zeros", 
        "__lr_mult__": "1.0", 
        "__shape__": "(0,)", 
        "__wd_mult__": "1.0"
      }, 
      "inputs": []
    }, 
    {
      "op": "null", 
      "name": "hybridsequential0_batchnorm5_running_mean", 
      "attr": {
        "__dtype__": "0", 
        "__init__": "zeros", 
        "__lr_mult__": "1.0", 
        "__shape__": "(0,)", 
        "__wd_mult__": "1.0"
      }, 
      "inputs": []
    }, 
    {
      "op": "null", 
      "name": "hybridsequential0_batchnorm5_running_var", 
      "attr": {
        "__dtype__": "0", 
        "__init__": "ones", 
        "__lr_mult__": "1.0", 
        "__shape__": "(0,)", 
        "__wd_mult__": "1.0"
      }, 
      "inputs": []
    }, 
    {
      "op": "BatchNorm", 
      "name": "hybridsequential0_batchnorm5_fwd", 
      "attr": {
        "axis": "1", 
        "eps": "1e-05", 
        "fix_gamma": "False", 
        "momentum": "0.9", 
        "use_global_stats": "False"
      }, 
      "inputs": [[48, 0, 0], [49, 0, 0], [50, 0, 0], [51, 0, 1], [52, 0, 1]]
    }, 
    {
      "op": "Activation", 
      "name": "hybridsequential0_relu5_fwd", 
      "attr": {"act_type": "relu"}, 
      "inputs": [[53, 0, 0]]
    }, 
    {
      "op": "null", 
      "name": "hybridsequential0_conv6_weight", 
      "attr": {
        "__dtype__": "0", 
        "__lr_mult__": "1.0", 
        "__shape__": "(512L, 0L, 3L, 3L)", 
        "__wd_mult__": "1.0"
      }, 
      "inputs": []
    }, 
    {
      "op": "null", 
      "name": "hybridsequential0_conv6_bias", 
      "attr": {
        "__dtype__": "0", 
        "__init__": "zeros", 
        "__lr_mult__": "1.0", 
        "__shape__": "(512L,)", 
        "__wd_mult__": "1.0"
      }, 
      "inputs": []
    }, 
    {
      "op": "Convolution", 
      "name": "hybridsequential0_conv6_fwd", 
      "attr": {
        "dilate": "(1, 1)", 
        "kernel": "(3, 3)", 
        "layout": "NCHW", 
        "no_bias": "False", 
        "num_filter": "512", 
        "num_group": "1", 
        "pad": "(0, 0)", 
        "stride": "(1, 1)"
      }, 
      "inputs": [[54, 0, 0], [55, 0, 0], [56, 0, 0]]
    }, 
    {
      "op": "null", 
      "name": "hybridsequential0_batchnorm6_gamma", 
      "attr": {
        "__dtype__": "0", 
        "__init__": "ones", 
        "__lr_mult__": "1.0", 
        "__shape__": "(0,)", 
        "__wd_mult__": "1.0"
      }, 
      "inputs": []
    }, 
    {
      "op": "null", 
      "name": "hybridsequential0_batchnorm6_beta", 
      "attr": {
        "__dtype__": "0", 
        "__init__": "zeros", 
        "__lr_mult__": "1.0", 
        "__shape__": "(0,)", 
        "__wd_mult__": "1.0"
      }, 
      "inputs": []
    }, 
    {
      "op": "null", 
      "name": "hybridsequential0_batchnorm6_running_mean", 
      "attr": {
        "__dtype__": "0", 
        "__init__": "zeros", 
        "__lr_mult__": "1.0", 
        "__shape__": "(0,)", 
        "__wd_mult__": "1.0"
      }, 
      "inputs": []
    }, 
    {
      "op": "null", 
      "name": "hybridsequential0_batchnorm6_running_var", 
      "attr": {
        "__dtype__": "0", 
        "__init__": "ones", 
        "__lr_mult__": "1.0", 
        "__shape__": "(0,)", 
        "__wd_mult__": "1.0"
      }, 
      "inputs": []
    }, 
    {
      "op": "BatchNorm", 
      "name": "hybridsequential0_batchnorm6_fwd", 
      "attr": {
        "axis": "1", 
        "eps": "1e-05", 
        "fix_gamma": "False", 
        "momentum": "0.9", 
        "use_global_stats": "False"
      }, 
      "inputs": [[57, 0, 0], [58, 0, 0], [59, 0, 0], [60, 0, 1], [61, 0, 1]]
    }, 
    {
      "op": "Activation", 
      "name": "hybridsequential0_relu6_fwd", 
      "attr": {"act_type": "relu"}, 
      "inputs": [[62, 0, 0]]
    }, 
    {
      "op": "null", 
      "name": "hybridsequential0_multitask0_dense0_weight", 
      "attr": {
        "__dtype__": "0", 
        "__lr_mult__": "1.0", 
        "__shape__": "(198, 0)", 
        "__wd_mult__": "1.0"
      }, 
      "inputs": []
    }, 
    {
      "op": "null", 
      "name": "hybridsequential0_multitask0_dense0_bias", 
      "attr": {
        "__dtype__": "0", 
        "__init__": "zeros", 
        "__lr_mult__": "1.0", 
        "__shape__": "(198,)", 
        "__wd_mult__": "1.0"
      }, 
      "inputs": []
    }, 
    {
      "op": "FullyConnected", 
      "name": "hybridsequential0_multitask0_dense0_fwd", 
      "attr": {
        "flatten": "True", 
        "no_bias": "False", 
        "num_hidden": "198"
      }, 
      "inputs": [[63, 0, 0], [64, 0, 0], [65, 0, 0]]
    }, 
    {
      "op": "null", 
      "name": "hybridsequential0_multitask0_dense1_weight", 
      "attr": {
        "__dtype__": "0", 
        "__lr_mult__": "1.0", 
        "__shape__": "(6, 0)", 
        "__wd_mult__": "1.0"
      }, 
      "inputs": []
    }, 
    {
      "op": "null", 
      "name": "hybridsequential0_multitask0_dense1_bias", 
      "attr": {
        "__dtype__": "0", 
        "__init__": "zeros", 
        "__lr_mult__": "1.0", 
        "__shape__": "(6,)", 
        "__wd_mult__": "1.0"
      }, 
      "inputs": []
    }, 
    {
      "op": "FullyConnected", 
      "name": "hybridsequential0_multitask0_dense1_fwd", 
      "attr": {
        "flatten": "True", 
        "no_bias": "False", 
        "num_hidden": "6"
      }, 
      "inputs": [[63, 0, 0], [67, 0, 0], [68, 0, 0]]
    }, 
    {
      "op": "null", 
      "name": "hybridsequential0_multitask0_dense2_weight", 
      "attr": {
        "__dtype__": "0", 
        "__lr_mult__": "1.0", 
        "__shape__": "(9, 0)", 
        "__wd_mult__": "1.0"
      }, 
      "inputs": []
    }, 
    {
      "op": "null", 
      "name": "hybridsequential0_multitask0_dense2_bias", 
      "attr": {
        "__dtype__": "0", 
        "__init__": "zeros", 
        "__lr_mult__": "1.0", 
        "__shape__": "(9,)", 
        "__wd_mult__": "1.0"
      }, 
      "inputs": []
    }, 
    {
      "op": "FullyConnected", 
      "name": "hybridsequential0_multitask0_dense2_fwd", 
      "attr": {
        "flatten": "True", 
        "no_bias": "False", 
        "num_hidden": "9"
      }, 
      "inputs": [[63, 0, 0], [70, 0, 0], [71, 0, 0]]
    }, 
    {
      "op": "null", 
      "name": "hybridsequential0_multitask0_dense3_weight", 
      "attr": {
        "__dtype__": "0", 
        "__lr_mult__": "1.0", 
        "__shape__": "(18, 0)", 
        "__wd_mult__": "1.0"
      }, 
      "inputs": []
    }, 
    {
      "op": "null", 
      "name": "hybridsequential0_multitask0_dense3_bias", 
      "attr": {
        "__dtype__": "0", 
        "__init__": "zeros", 
        "__lr_mult__": "1.0", 
        "__shape__": "(18,)", 
        "__wd_mult__": "1.0"
      }, 
      "inputs": []
    }, 
    {
      "op": "FullyConnected", 
      "name": "hybridsequential0_multitask0_dense3_fwd", 
      "attr": {
        "flatten": "True", 
        "no_bias": "False", 
        "num_hidden": "18"
      }, 
      "inputs": [[63, 0, 0], [73, 0, 0], [74, 0, 0]]
    }
  ], 
  "arg_nodes": [
    0, 
    1, 
    2, 
    4, 
    5, 
    6, 
    7, 
    10, 
    11, 
    13, 
    14, 
    15, 
    16, 
    19, 
    20, 
    22, 
    23, 
    24, 
    25, 
    28, 
    29, 
    31, 
    32, 
    33, 
    34, 
    37, 
    38, 
    40, 
    41, 
    42, 
    43, 
    46, 
    47, 
    49, 
    50, 
    51, 
    52, 
    55, 
    56, 
    58, 
    59, 
    60, 
    61, 
    64, 
    65, 
    67, 
    68, 
    70, 
    71, 
    73, 
    74
  ], 
  "node_row_ptr": [
    0, 
    1, 
    2, 
    3, 
    4, 
    5, 
    6, 
    7, 
    8, 
    11, 
    12, 
    13, 
    14, 
    15, 
    16, 
    17, 
    18, 
    19, 
    22, 
    23, 
    24, 
    25, 
    26, 
    27, 
    28, 
    29, 
    30, 
    33, 
    34, 
    35, 
    36, 
    37, 
    38, 
    39, 
    40, 
    41, 
    44, 
    45, 
    46, 
    47, 
    48, 
    49, 
    50, 
    51, 
    52, 
    55, 
    56, 
    57, 
    58, 
    59, 
    60, 
    61, 
    62, 
    63, 
    66, 
    67, 
    68, 
    69, 
    70, 
    71, 
    72, 
    73, 
    74, 
    77, 
    78, 
    79, 
    80, 
    81, 
    82, 
    83, 
    84, 
    85, 
    86, 
    87, 
    88, 
    89, 
    90
  ], 
  "heads": [[66, 0, 0], [69, 0, 0], [72, 0, 0], [75, 0, 0]], 
  "attrs": {
    "build_version": ["str", "nnvm_1.0.1 commit d3cf2f0b42e8e8c73322af025bbf87325d149e23 Author: Lichao.Huang <lichao.huang@hobot.cc> Date:   Tue Jul 31 23:48:55 2018 +0800"], 
    "mxnet_version": ["int", 10001]
  }
}